…
converting model to tensorflow lite model
saving tflite model as joker_net_20201024-2234.tflite
done training; model saved in joker_net_20201024-2234 and joker_net_20201024-2234.tflite.
See training.log for logging output for this run.
Tensorflow version 2.3.1
dataset path: TRAIN_DATA_FOLDER=/home/tobi/Downloads/trixsyDataset
initializing model from joker_net_20201024-2234/
Model: "sequential"
_________________________________________________________________
Layer (type)                 Output Shape              Param #   
=================================================================
conv1 (Conv2D)               (None, 54, 54, 64)        7808      
_________________________________________________________________
batch_normalization (BatchNo (None, 54, 54, 64)        256       
_________________________________________________________________
max_pooling2d (MaxPooling2D) (None, 26, 26, 64)        0         
_________________________________________________________________
conv2 (Conv2D)               (None, 26, 26, 64)        102464    
_________________________________________________________________
batch_normalization_1 (Batch (None, 26, 26, 64)        256       
_________________________________________________________________
max_pooling2d_1 (MaxPooling2 (None, 12, 12, 64)        0         
_________________________________________________________________
conv3 (Conv2D)               (None, 12, 12, 128)       73856     
_________________________________________________________________
conv4 (Conv2D)               (None, 12, 12, 128)       147584    
_________________________________________________________________
max_pooling2d_2 (MaxPooling2 (None, 5, 5, 128)         0         
_________________________________________________________________
flatten (Flatten)            (None, 3200)              0         
_________________________________________________________________
fc8 (Dense)                  (None, 100)               320100    
_________________________________________________________________
dropout (Dropout)            (None, 100)               0         
_________________________________________________________________
output (Dense)               (None, 2)                 202       
=================================================================
Total params: 652,526
Trainable params: 652,270
Non-trainable params: 256
_________________________________________________________________
making training generator
making training generator
making validation generator
making test generator
loading weights from checkpoint joker_net_checkpoint.hdf5
starting training
Done with model.fit; history is 
…
saving tflite model as joker_net_20201025-2154.tflite
done training after 47.6m; model saved in joker_net_20201025-2154 and joker_net_20201025-2154.tflite.
See training.log for logging output for this run.
Tensorflow version 2.3.1
dataset path: TRAIN_DATA_FOLDER=/home/tobi/Downloads/trixsyDataset/training_dataset
initializing model from joker_net_20201025-2154/
Model: "sequential"
_________________________________________________________________
Layer (type)                 Output Shape              Param #   
=================================================================
conv1 (Conv2D)               (None, 54, 54, 64)        7808      
_________________________________________________________________
batch_normalization (BatchNo (None, 54, 54, 64)        256       
_________________________________________________________________
max_pooling2d (MaxPooling2D) (None, 26, 26, 64)        0         
_________________________________________________________________
conv2 (Conv2D)               (None, 26, 26, 64)        102464    
_________________________________________________________________
batch_normalization_1 (Batch (None, 26, 26, 64)        256       
_________________________________________________________________
max_pooling2d_1 (MaxPooling2 (None, 12, 12, 64)        0         
_________________________________________________________________
conv3 (Conv2D)               (None, 12, 12, 128)       73856     
_________________________________________________________________
conv4 (Conv2D)               (None, 12, 12, 128)       147584    
_________________________________________________________________
max_pooling2d_2 (MaxPooling2 (None, 5, 5, 128)         0         
_________________________________________________________________
flatten (Flatten)            (None, 3200)              0         
_________________________________________________________________
fc8 (Dense)                  (None, 100)               320100    
_________________________________________________________________
dropout (Dropout)            (None, 100)               0         
_________________________________________________________________
output (Dense)               (None, 2)                 202       
=================================================================
Total params: 652,526
Trainable params: 652,270
Non-trainable params: 256
_________________________________________________________________
making training generator
making training generator
Tensorflow version 2.3.1
dataset path: TRAIN_DATA_FOLDER=/home/tobi/Downloads/trixsyDataset/training_dataset
initializing model from joker_net_20201025-2154/
Model: "sequential"
_________________________________________________________________
Layer (type)                 Output Shape              Param #   
=================================================================
conv1 (Conv2D)               (None, 54, 54, 64)        7808      
_________________________________________________________________
batch_normalization (BatchNo (None, 54, 54, 64)        256       
_________________________________________________________________
max_pooling2d (MaxPooling2D) (None, 26, 26, 64)        0         
_________________________________________________________________
conv2 (Conv2D)               (None, 26, 26, 64)        102464    
_________________________________________________________________
batch_normalization_1 (Batch (None, 26, 26, 64)        256       
_________________________________________________________________
max_pooling2d_1 (MaxPooling2 (None, 12, 12, 64)        0         
_________________________________________________________________
conv3 (Conv2D)               (None, 12, 12, 128)       73856     
_________________________________________________________________
conv4 (Conv2D)               (None, 12, 12, 128)       147584    
_________________________________________________________________
max_pooling2d_2 (MaxPooling2 (None, 5, 5, 128)         0         
_________________________________________________________________
flatten (Flatten)            (None, 3200)              0         
_________________________________________________________________
fc8 (Dense)                  (None, 100)               320100    
_________________________________________________________________
dropout (Dropout)            (None, 100)               0         
_________________________________________________________________
output (Dense)               (None, 2)                 202       
=================================================================
Total params: 652,526
Trainable params: 652,270
Non-trainable params: 256
_________________________________________________________________
making training generator
making training generator
making validation generator
making test generator
loading weights from checkpoint joker_net_checkpoint.hdf5
starting training
Done with model.fit; history is 
…
saving tflite model as joker_net_20201027-1902.tflite
done training after 125.3m; model saved in joker_net_20201027-1902 and joker_net_20201027-1902.tflite.
See training.log for logging output for this run.
Tensorflow version 2.3.1
dataset path: TRAIN_DATA_FOLDER=/home/tobi/Downloads/trixsyDataset/training_dataset
initializing model from joker_net_20201027-1902/
Model: "sequential"
_________________________________________________________________
Layer (type)                 Output Shape              Param #   
=================================================================
conv1 (Conv2D)               (None, 54, 54, 64)        7808      
_________________________________________________________________
batch_normalization (BatchNo (None, 54, 54, 64)        256       
_________________________________________________________________
max_pooling2d (MaxPooling2D) (None, 26, 26, 64)        0         
_________________________________________________________________
conv2 (Conv2D)               (None, 26, 26, 64)        102464    
_________________________________________________________________
batch_normalization_1 (Batch (None, 26, 26, 64)        256       
_________________________________________________________________
max_pooling2d_1 (MaxPooling2 (None, 12, 12, 64)        0         
_________________________________________________________________
conv3 (Conv2D)               (None, 12, 12, 128)       73856     
_________________________________________________________________
conv4 (Conv2D)               (None, 12, 12, 128)       147584    
_________________________________________________________________
max_pooling2d_2 (MaxPooling2 (None, 5, 5, 128)         0         
_________________________________________________________________
flatten (Flatten)            (None, 3200)              0         
_________________________________________________________________
fc8 (Dense)                  (None, 100)               320100    
_________________________________________________________________
dropout (Dropout)            (None, 100)               0         
_________________________________________________________________
output (Dense)               (None, 2)                 202       
=================================================================
Total params: 652,526
Trainable params: 652,270
Non-trainable params: 256
_________________________________________________________________
making training generator
making training generator
making validation generator
making test generator
loading weights from checkpoint joker_net_checkpoint.hdf5
evaluating test set accuracy
Tensorflow version 2.3.1
dataset path: TRAIN_DATA_FOLDER=/home/tobi/Downloads/trixsyDataset/training_dataset
initializing model from joker_net_20201027-1902/
Model: "sequential"
_________________________________________________________________
Layer (type)                 Output Shape              Param #   
=================================================================
conv1 (Conv2D)               (None, 54, 54, 64)        7808      
_________________________________________________________________
batch_normalization (BatchNo (None, 54, 54, 64)        256       
_________________________________________________________________
max_pooling2d (MaxPooling2D) (None, 26, 26, 64)        0         
_________________________________________________________________
conv2 (Conv2D)               (None, 26, 26, 64)        102464    
_________________________________________________________________
batch_normalization_1 (Batch (None, 26, 26, 64)        256       
_________________________________________________________________
max_pooling2d_1 (MaxPooling2 (None, 12, 12, 64)        0         
_________________________________________________________________
conv3 (Conv2D)               (None, 12, 12, 128)       73856     
_________________________________________________________________
conv4 (Conv2D)               (None, 12, 12, 128)       147584    
_________________________________________________________________
max_pooling2d_2 (MaxPooling2 (None, 5, 5, 128)         0         
_________________________________________________________________
flatten (Flatten)            (None, 3200)              0         
_________________________________________________________________
fc8 (Dense)                  (None, 100)               320100    
_________________________________________________________________
dropout (Dropout)            (None, 100)               0         
_________________________________________________________________
output (Dense)               (None, 2)                 202       
=================================================================
Total params: 652,526
Trainable params: 652,270
Non-trainable params: 256
_________________________________________________________________
making training generator
making training generator
making validation generator
making test generator
loading weights from checkpoint joker_net_checkpoint.hdf5
evaluating test set accuracy
Tensorflow version 2.3.1
dataset path: TRAIN_DATA_FOLDER=/home/tobi/Downloads/trixsyDataset/training_dataset
initializing model from joker_net_20201027-1902/
Model: "sequential"
_________________________________________________________________
Layer (type)                 Output Shape              Param #   
=================================================================
conv1 (Conv2D)               (None, 54, 54, 64)        7808      
_________________________________________________________________
batch_normalization (BatchNo (None, 54, 54, 64)        256       
_________________________________________________________________
max_pooling2d (MaxPooling2D) (None, 26, 26, 64)        0         
_________________________________________________________________
conv2 (Conv2D)               (None, 26, 26, 64)        102464    
_________________________________________________________________
batch_normalization_1 (Batch (None, 26, 26, 64)        256       
_________________________________________________________________
max_pooling2d_1 (MaxPooling2 (None, 12, 12, 64)        0         
_________________________________________________________________
conv3 (Conv2D)               (None, 12, 12, 128)       73856     
_________________________________________________________________
conv4 (Conv2D)               (None, 12, 12, 128)       147584    
_________________________________________________________________
max_pooling2d_2 (MaxPooling2 (None, 5, 5, 128)         0         
_________________________________________________________________
flatten (Flatten)            (None, 3200)              0         
_________________________________________________________________
fc8 (Dense)                  (None, 100)               320100    
_________________________________________________________________
dropout (Dropout)            (None, 100)               0         
_________________________________________________________________
output (Dense)               (None, 2)                 202       
=================================================================
Total params: 652,526
Trainable params: 652,270
Non-trainable params: 256
_________________________________________________________________
making training generator
making training generator
Tensorflow version 2.3.1
dataset path: TRAIN_DATA_FOLDER=/home/tobi/Downloads/trixsyDataset/training_dataset
initializing model from joker_net_20201027-1902/
Model: "sequential"
_________________________________________________________________
Layer (type)                 Output Shape              Param #   
=================================================================
conv1 (Conv2D)               (None, 54, 54, 64)        7808      
_________________________________________________________________
batch_normalization (BatchNo (None, 54, 54, 64)        256       
_________________________________________________________________
max_pooling2d (MaxPooling2D) (None, 26, 26, 64)        0         
_________________________________________________________________
conv2 (Conv2D)               (None, 26, 26, 64)        102464    
_________________________________________________________________
batch_normalization_1 (Batch (None, 26, 26, 64)        256       
_________________________________________________________________
max_pooling2d_1 (MaxPooling2 (None, 12, 12, 64)        0         
_________________________________________________________________
conv3 (Conv2D)               (None, 12, 12, 128)       73856     
_________________________________________________________________
conv4 (Conv2D)               (None, 12, 12, 128)       147584    
_________________________________________________________________
max_pooling2d_2 (MaxPooling2 (None, 5, 5, 128)         0         
_________________________________________________________________
flatten (Flatten)            (None, 3200)              0         
_________________________________________________________________
fc8 (Dense)                  (None, 100)               320100    
_________________________________________________________________
dropout (Dropout)            (None, 100)               0         
_________________________________________________________________
output (Dense)               (None, 2)                 202       
=================================================================
Total params: 652,526
Trainable params: 652,270
Non-trainable params: 256
_________________________________________________________________
making training generator
making training generator
making validation generator
making test generator
loading weights from checkpoint joker_net_checkpoint.hdf5
evaluating test set accuracy
Tensorflow version 2.3.1
dataset path: TRAIN_DATA_FOLDER=/home/tobi/Downloads/trixsyDataset/training_dataset
initializing model from joker_net_20201027-1902/
Model: "sequential"
_________________________________________________________________
Layer (type)                 Output Shape              Param #   
=================================================================
conv1 (Conv2D)               (None, 54, 54, 64)        7808      
_________________________________________________________________
batch_normalization (BatchNo (None, 54, 54, 64)        256       
_________________________________________________________________
max_pooling2d (MaxPooling2D) (None, 26, 26, 64)        0         
_________________________________________________________________
conv2 (Conv2D)               (None, 26, 26, 64)        102464    
_________________________________________________________________
batch_normalization_1 (Batch (None, 26, 26, 64)        256       
_________________________________________________________________
max_pooling2d_1 (MaxPooling2 (None, 12, 12, 64)        0         
_________________________________________________________________
conv3 (Conv2D)               (None, 12, 12, 128)       73856     
_________________________________________________________________
conv4 (Conv2D)               (None, 12, 12, 128)       147584    
_________________________________________________________________
max_pooling2d_2 (MaxPooling2 (None, 5, 5, 128)         0         
_________________________________________________________________
flatten (Flatten)            (None, 3200)              0         
_________________________________________________________________
fc8 (Dense)                  (None, 100)               320100    
_________________________________________________________________
dropout (Dropout)            (None, 100)               0         
_________________________________________________________________
output (Dense)               (None, 2)                 202       
=================================================================
Total params: 652,526
Trainable params: 652,270
Non-trainable params: 256
_________________________________________________________________
making training generator
making training generator
making validation generator
making test generator
loading weights from checkpoint joker_net_checkpoint.hdf5
evaluating test set accuracy
Tensorflow version 2.3.1
dataset path: TRAIN_DATA_FOLDER=/home/tobi/Downloads/trixsyDataset/training_dataset
initializing model from joker_net_20201027-1902/
Model: "sequential"
_________________________________________________________________
Layer (type)                 Output Shape              Param #   
=================================================================
conv1 (Conv2D)               (None, 54, 54, 64)        7808      
_________________________________________________________________
batch_normalization (BatchNo (None, 54, 54, 64)        256       
_________________________________________________________________
max_pooling2d (MaxPooling2D) (None, 26, 26, 64)        0         
_________________________________________________________________
conv2 (Conv2D)               (None, 26, 26, 64)        102464    
_________________________________________________________________
batch_normalization_1 (Batch (None, 26, 26, 64)        256       
_________________________________________________________________
max_pooling2d_1 (MaxPooling2 (None, 12, 12, 64)        0         
_________________________________________________________________
conv3 (Conv2D)               (None, 12, 12, 128)       73856     
_________________________________________________________________
conv4 (Conv2D)               (None, 12, 12, 128)       147584    
_________________________________________________________________
max_pooling2d_2 (MaxPooling2 (None, 5, 5, 128)         0         
_________________________________________________________________
flatten (Flatten)            (None, 3200)              0         
_________________________________________________________________
fc8 (Dense)                  (None, 100)               320100    
_________________________________________________________________
dropout (Dropout)            (None, 100)               0         
_________________________________________________________________
output (Dense)               (None, 2)                 202       
=================================================================
Total params: 652,526
Trainable params: 652,270
Non-trainable params: 256
_________________________________________________________________
making training generator
making training generator
making validation generator
making test generator
loading weights from checkpoint joker_net_checkpoint.hdf5
evaluating test set accuracy
…
converting model to tensorflow lite model
saving tflite model as joker_net_20201028-2010.tflite
**** done training after 360.6m; model saved in joker_net_20201028-2010 and joker_net_20201028-2010.tflite.
See training.log for logging output for this run.
Tensorflow version 2.3.1
dataset path: TRAIN_DATA_FOLDER=/home/tobi/Downloads/trixsyDataset/training_dataset
creating new empty model
Model: "sequential"
_________________________________________________________________
Layer (type)                 Output Shape              Param #   
=================================================================
conv1 (Conv2D)               (None, 54, 54, 64)        7808      
_________________________________________________________________
batch_normalization (BatchNo (None, 54, 54, 64)        256       
_________________________________________________________________
max_pooling2d (MaxPooling2D) (None, 26, 26, 64)        0         
_________________________________________________________________
conv2 (Conv2D)               (None, 26, 26, 64)        102464    
_________________________________________________________________
batch_normalization_1 (Batch (None, 26, 26, 64)        256       
_________________________________________________________________
max_pooling2d_1 (MaxPooling2 (None, 12, 12, 64)        0         
_________________________________________________________________
conv3 (Conv2D)               (None, 12, 12, 128)       73856     
_________________________________________________________________
conv4 (Conv2D)               (None, 12, 12, 128)       147584    
_________________________________________________________________
max_pooling2d_2 (MaxPooling2 (None, 5, 5, 128)         0         
_________________________________________________________________
flatten (Flatten)            (None, 3200)              0         
_________________________________________________________________
fc8 (Dense)                  (None, 100)               320100    
_________________________________________________________________
dropout (Dropout)            (None, 100)               0         
_________________________________________________________________
output (Dense)               (None, 2)                 202       
=================================================================
Total params: 652,526
Trainable params: 652,270
Non-trainable params: 256
_________________________________________________________________
making training generator
making training generator
making validation generator
making test generator
loading weights from checkpoint joker_net_checkpoint.hdf5
starting training
Tensorflow version 2.3.1
dataset path: TRAIN_DATA_FOLDER=/home/tobi/Downloads/trixsyDataset/training_dataset
creating new empty model
Model: "sequential"
_________________________________________________________________
Layer (type)                 Output Shape              Param #   
=================================================================
conv1 (Conv2D)               (None, 54, 54, 64)        7808      
_________________________________________________________________
batch_normalization (BatchNo (None, 54, 54, 64)        256       
_________________________________________________________________
max_pooling2d (MaxPooling2D) (None, 26, 26, 64)        0         
_________________________________________________________________
conv2 (Conv2D)               (None, 26, 26, 64)        102464    
_________________________________________________________________
batch_normalization_1 (Batch (None, 26, 26, 64)        256       
_________________________________________________________________
max_pooling2d_1 (MaxPooling2 (None, 12, 12, 64)        0         
_________________________________________________________________
conv3 (Conv2D)               (None, 12, 12, 128)       73856     
_________________________________________________________________
conv4 (Conv2D)               (None, 12, 12, 128)       147584    
_________________________________________________________________
max_pooling2d_2 (MaxPooling2 (None, 5, 5, 128)         0         
_________________________________________________________________
flatten (Flatten)            (None, 3200)              0         
_________________________________________________________________
fc8 (Dense)                  (None, 100)               320100    
_________________________________________________________________
dropout (Dropout)            (None, 100)               0         
_________________________________________________________________
output (Dense)               (None, 2)                 202       
=================================================================
Total params: 652,526
Trainable params: 652,270
Non-trainable params: 256
_________________________________________________________________
making training generator
making training generator
making validation generator
making test generator
loading weights from checkpoint joker_net_checkpoint.hdf5
starting training
Tensorflow version 2.3.1
dataset path: TRAIN_DATA_FOLDER=/home/tobi/Downloads/trixsyDataset/training_dataset
creating new empty model
Model: "sequential"
_________________________________________________________________
Layer (type)                 Output Shape              Param #   
=================================================================
conv1 (Conv2D)               (None, 54, 54, 64)        7808      
_________________________________________________________________
batch_normalization (BatchNo (None, 54, 54, 64)        256       
_________________________________________________________________
max_pooling2d (MaxPooling2D) (None, 26, 26, 64)        0         
_________________________________________________________________
conv2 (Conv2D)               (None, 26, 26, 64)        102464    
_________________________________________________________________
batch_normalization_1 (Batch (None, 26, 26, 64)        256       
_________________________________________________________________
max_pooling2d_1 (MaxPooling2 (None, 12, 12, 64)        0         
_________________________________________________________________
conv3 (Conv2D)               (None, 12, 12, 128)       73856     
_________________________________________________________________
conv4 (Conv2D)               (None, 12, 12, 128)       147584    
_________________________________________________________________
max_pooling2d_2 (MaxPooling2 (None, 5, 5, 128)         0         
_________________________________________________________________
flatten (Flatten)            (None, 3200)              0         
_________________________________________________________________
fc8 (Dense)                  (None, 100)               320100    
_________________________________________________________________
dropout (Dropout)            (None, 100)               0         
_________________________________________________________________
output (Dense)               (None, 2)                 202       
=================================================================
Total params: 652,526
Trainable params: 652,270
Non-trainable params: 256
_________________________________________________________________
making training generator
making training generator
making validation generator
making test generator
loading weights from checkpoint joker_net_checkpoint.hdf5
starting training
Tensorflow version 2.3.1
dataset path: TRAIN_DATA_FOLDER=/home/tobi/Downloads/trixsyDataset/training_dataset
creating new empty model
Model: "sequential"
_________________________________________________________________
Layer (type)                 Output Shape              Param #   
=================================================================
conv1 (Conv2D)               (None, 54, 54, 64)        7808      
_________________________________________________________________
batch_normalization (BatchNo (None, 54, 54, 64)        256       
_________________________________________________________________
max_pooling2d (MaxPooling2D) (None, 26, 26, 64)        0         
_________________________________________________________________
conv2 (Conv2D)               (None, 26, 26, 64)        102464    
_________________________________________________________________
batch_normalization_1 (Batch (None, 26, 26, 64)        256       
_________________________________________________________________
max_pooling2d_1 (MaxPooling2 (None, 12, 12, 64)        0         
_________________________________________________________________
conv3 (Conv2D)               (None, 12, 12, 128)       73856     
_________________________________________________________________
conv4 (Conv2D)               (None, 12, 12, 128)       147584    
_________________________________________________________________
max_pooling2d_2 (MaxPooling2 (None, 5, 5, 128)         0         
_________________________________________________________________
flatten (Flatten)            (None, 3200)              0         
_________________________________________________________________
fc8 (Dense)                  (None, 100)               320100    
_________________________________________________________________
dropout (Dropout)            (None, 100)               0         
_________________________________________________________________
output (Dense)               (None, 2)                 202       
=================================================================
Total params: 652,526
Trainable params: 652,270
Non-trainable params: 256
_________________________________________________________________
making training generator
making training generator
making validation generator
making test generator
loading weights from checkpoint joker_net_checkpoint.hdf5
starting training
Tensorflow version 2.3.1
dataset path: TRAIN_DATA_FOLDER=/home/tobi/Downloads/trixsyDataset/training_dataset
creating new empty model
Model: "sequential"
_________________________________________________________________
Layer (type)                 Output Shape              Param #   
=================================================================
conv1 (Conv2D)               (None, 54, 54, 64)        7808      
_________________________________________________________________
batch_normalization (BatchNo (None, 54, 54, 64)        256       
_________________________________________________________________
max_pooling2d (MaxPooling2D) (None, 26, 26, 64)        0         
_________________________________________________________________
conv2 (Conv2D)               (None, 26, 26, 64)        102464    
_________________________________________________________________
batch_normalization_1 (Batch (None, 26, 26, 64)        256       
_________________________________________________________________
max_pooling2d_1 (MaxPooling2 (None, 12, 12, 64)        0         
_________________________________________________________________
conv3 (Conv2D)               (None, 12, 12, 128)       73856     
_________________________________________________________________
conv4 (Conv2D)               (None, 12, 12, 128)       147584    
_________________________________________________________________
max_pooling2d_2 (MaxPooling2 (None, 5, 5, 128)         0         
_________________________________________________________________
flatten (Flatten)            (None, 3200)              0         
_________________________________________________________________
fc8 (Dense)                  (None, 100)               320100    
_________________________________________________________________
dropout (Dropout)            (None, 100)               0         
_________________________________________________________________
output (Dense)               (None, 2)                 202       
=================================================================
Total params: 652,526
Trainable params: 652,270
Non-trainable params: 256
_________________________________________________________________
making training generator
making training generator
making validation generator
making test generator
loading weights from checkpoint joker_net_checkpoint.hdf5
starting training
2020-10-29 13:49:30,825 - Tensorflow version 2.3.1
…
