…
 version 2.3.1
2020-11-03 06:02:22,566-INFO-dataset path: TRAIN_DATA_FOLDER=/home/tobi/Downloads/trixsyDataset/training_dataset
2020-11-03 06:02:28,004-INFO-initializing model from joker_net_20201102-2031/
2020-11-03 06:02:28,540-INFO-Model: "sequential_1"
2020-11-03 06:02:28,540-INFO-_________________________________________________________________
2020-11-03 06:02:28,541-INFO-Layer (type)                 Output Shape              Param #   
2020-11-03 06:02:28,541-INFO-=================================================================
2020-11-03 06:02:28,541-INFO-conv1 (Conv2D)               (None, 54, 54, 64)        7808      
2020-11-03 06:02:28,541-INFO-_________________________________________________________________
2020-11-03 06:02:28,541-INFO-batch_normalization_2 (Batch (None, 54, 54, 64)        256       
2020-11-03 06:02:28,541-INFO-_________________________________________________________________
2020-11-03 06:02:28,541-INFO-max_pooling2d_3 (MaxPooling2 (None, 26, 26, 64)        0         
2020-11-03 06:02:28,542-INFO-_________________________________________________________________
2020-11-03 06:02:28,542-INFO-conv2 (Conv2D)               (None, 26, 26, 64)        102464    
2020-11-03 06:02:28,542-INFO-_________________________________________________________________
2020-11-03 06:02:28,542-INFO-batch_normalization_3 (Batch (None, 26, 26, 64)        256       
2020-11-03 06:02:28,542-INFO-_________________________________________________________________
2020-11-03 06:02:28,543-INFO-max_pooling2d_4 (MaxPooling2 (None, 12, 12, 64)        0         
2020-11-03 06:02:28,543-INFO-_________________________________________________________________
2020-11-03 06:02:28,543-INFO-conv3 (Conv2D)               (None, 12, 12, 128)       73856     
2020-11-03 06:02:28,543-INFO-_________________________________________________________________
2020-11-03 06:02:28,543-INFO-conv4 (Conv2D)               (None, 12, 12, 128)       147584    
2020-11-03 06:02:28,543-INFO-_________________________________________________________________
2020-11-03 06:02:28,543-INFO-max_pooling2d_5 (MaxPooling2 (None, 5, 5, 128)         0         
2020-11-03 06:02:28,543-INFO-_________________________________________________________________
2020-11-03 06:02:28,544-INFO-flatten_1 (Flatten)          (None, 3200)              0         
2020-11-03 06:02:28,544-INFO-_________________________________________________________________
2020-11-03 06:02:28,544-INFO-fc8 (Dense)                  (None, 100)               320100    
2020-11-03 06:02:28,544-INFO-_________________________________________________________________
2020-11-03 06:02:28,544-INFO-dropout_1 (Dropout)          (None, 100)               0         
2020-11-03 06:02:28,544-INFO-_________________________________________________________________
2020-11-03 06:02:28,544-INFO-output (Dense)               (None, 2)                 202       
2020-11-03 06:02:28,544-INFO-=================================================================
2020-11-03 06:02:28,546-INFO-Total params: 652,526
2020-11-03 06:02:28,546-INFO-Trainable params: 652,270
2020-11-03 06:02:28,546-INFO-Non-trainable params: 256
2020-11-03 06:02:28,546-INFO-_________________________________________________________________
2020-11-03 06:02:28,546-INFO-making training generator
…
