…
ow version 2.3.1
2020-11-01 16:52:27,475-INFO-dataset path: TRAIN_DATA_FOLDER=/home/tobi/Downloads/trixsyDataset/training_dataset
2020-11-01 16:52:38,599-INFO-initializing model from joker_net_20201101-1303/
2020-11-01 16:52:39,176-INFO-Model: "sequential"
2020-11-01 16:52:39,176-INFO-_________________________________________________________________
2020-11-01 16:52:39,176-INFO-Layer (type)                 Output Shape              Param #   
2020-11-01 16:52:39,176-INFO-=================================================================
2020-11-01 16:52:39,177-INFO-conv1 (Conv2D)               (None, 54, 54, 64)        7808      
2020-11-01 16:52:39,177-INFO-_________________________________________________________________
2020-11-01 16:52:39,177-INFO-batch_normalization (BatchNo (None, 54, 54, 64)        256       
2020-11-01 16:52:39,177-INFO-_________________________________________________________________
2020-11-01 16:52:39,177-INFO-max_pooling2d (MaxPooling2D) (None, 26, 26, 64)        0         
2020-11-01 16:52:39,177-INFO-_________________________________________________________________
2020-11-01 16:52:39,177-INFO-conv2 (Conv2D)               (None, 26, 26, 64)        102464    
2020-11-01 16:52:39,177-INFO-_________________________________________________________________
2020-11-01 16:52:39,178-INFO-batch_normalization_1 (Batch (None, 26, 26, 64)        256       
2020-11-01 16:52:39,178-INFO-_________________________________________________________________
2020-11-01 16:52:39,178-INFO-max_pooling2d_1 (MaxPooling2 (None, 12, 12, 64)        0         
2020-11-01 16:52:39,178-INFO-_________________________________________________________________
2020-11-01 16:52:39,178-INFO-conv3 (Conv2D)               (None, 12, 12, 128)       73856     
2020-11-01 16:52:39,178-INFO-_________________________________________________________________
2020-11-01 16:52:39,178-INFO-conv4 (Conv2D)               (None, 12, 12, 128)       147584    
2020-11-01 16:52:39,178-INFO-_________________________________________________________________
2020-11-01 16:52:39,178-INFO-max_pooling2d_2 (MaxPooling2 (None, 5, 5, 128)         0         
2020-11-01 16:52:39,179-INFO-_________________________________________________________________
2020-11-01 16:52:39,179-INFO-flatten (Flatten)            (None, 3200)              0         
2020-11-01 16:52:39,179-INFO-_________________________________________________________________
2020-11-01 16:52:39,179-INFO-fc8 (Dense)                  (None, 100)               320100    
2020-11-01 16:52:39,179-INFO-_________________________________________________________________
2020-11-01 16:52:39,179-INFO-dropout (Dropout)            (None, 100)               0         
2020-11-01 16:52:39,179-INFO-_________________________________________________________________
2020-11-01 16:52:39,180-INFO-output (Dense)               (None, 2)                 202       
2020-11-01 16:52:39,180-INFO-=================================================================
2020-11-01 16:52:39,181-INFO-Total params: 652,526
2020-11-01 16:52:39,181-INFO-Trainable params: 652,270
2020-11-01 16:52:39,181-INFO-Non-trainable params: 256
2020-11-01 16:52:39,181-INFO-_________________________________________________________________
2020-11-01 16:52:39,181-INFO-making training generator
…
