…
2020-11-24 14:00:08,602-INFO-making test generator
2020-11-24 14:00:08,729-INFO-Model: "mobilenet_0.25_224"
2020-11-24 14:00:08,729-INFO-_________________________________________________________________
2020-11-24 14:00:08,730-INFO-Layer (type)                 Output Shape              Param #   
2020-11-24 14:00:08,730-INFO-=================================================================
2020-11-24 14:00:08,730-INFO-input_1 (InputLayer)         [(None, 224, 224, 1)]     0         
2020-11-24 14:00:08,730-INFO-_________________________________________________________________
2020-11-24 14:00:08,730-INFO-conv1 (Conv2D)               (None, 112, 112, 8)       72        
2020-11-24 14:00:08,730-INFO-_________________________________________________________________
2020-11-24 14:00:08,730-INFO-conv1_bn (BatchNormalization (None, 112, 112, 8)       32        
2020-11-24 14:00:08,730-INFO-_________________________________________________________________
2020-11-24 14:00:08,730-INFO-conv1_relu (ReLU)            (None, 112, 112, 8)       0         
2020-11-24 14:00:08,730-INFO-_________________________________________________________________
2020-11-24 14:00:08,731-INFO-conv_dw_1 (DepthwiseConv2D)  (None, 112, 112, 8)       72        
2020-11-24 14:00:08,731-INFO-_________________________________________________________________
2020-11-24 14:00:08,731-INFO-conv_dw_1_bn (BatchNormaliza (None, 112, 112, 8)       32        
2020-11-24 14:00:08,731-INFO-_________________________________________________________________
2020-11-24 14:00:08,731-INFO-conv_dw_1_relu (ReLU)        (None, 112, 112, 8)       0         
2020-11-24 14:00:08,731-INFO-_________________________________________________________________
2020-11-24 14:00:08,731-INFO-conv_pw_1 (Conv2D)           (None, 112, 112, 16)      128       
2020-11-24 14:00:08,731-INFO-_________________________________________________________________
2020-11-24 14:00:08,732-INFO-conv_pw_1_bn (BatchNormaliza (None, 112, 112, 16)      64        
2020-11-24 14:00:08,732-INFO-_________________________________________________________________
2020-11-24 14:00:08,732-INFO-conv_pw_1_relu (ReLU)        (None, 112, 112, 16)      0         
2020-11-24 14:00:08,732-INFO-_________________________________________________________________
2020-11-24 14:00:08,732-INFO-conv_pad_2 (ZeroPadding2D)   (None, 113, 113, 16)      0         
2020-11-24 14:00:08,732-INFO-_________________________________________________________________
2020-11-24 14:00:08,732-INFO-conv_dw_2 (DepthwiseConv2D)  (None, 56, 56, 16)        144       
2020-11-24 14:00:08,732-INFO-_________________________________________________________________
2020-11-24 14:00:08,732-INFO-conv_dw_2_bn (BatchNormaliza (None, 56, 56, 16)        64        
2020-11-24 14:00:08,732-INFO-_________________________________________________________________
2020-11-24 14:00:08,733-INFO-conv_dw_2_relu (ReLU)        (None, 56, 56, 16)        0         
2020-11-24 14:00:08,733-INFO-_________________________________________________________________
2020-11-24 14:00:08,733-INFO-conv_pw_2 (Conv2D)           (None, 56, 56, 32)        512       
2020-11-24 14:00:08,733-INFO-_________________________________________________________________
2020-11-24 14:00:08,733-INFO-conv_pw_2_bn (BatchNormaliza (None, 56, 56, 32)        128       
2020-11-24 14:00:08,733-INFO-_________________________________________________________________
2020-11-24 14:00:08,733-INFO-conv_pw_2_relu (ReLU)        (None, 56, 56, 32)        0         
2020-11-24 14:00:08,733-INFO-_________________________________________________________________
2020-11-24 14:00:08,733-INFO-conv_dw_3 (DepthwiseConv2D)  (None, 56, 56, 32)        288       
2020-11-24 14:00:08,733-INFO-_________________________________________________________________
2020-11-24 14:00:08,734-INFO-conv_dw_3_bn (BatchNormaliza (None, 56, 56, 32)        128       
2020-11-24 14:00:08,734-INFO-_________________________________________________________________
2020-11-24 14:00:08,734-INFO-conv_dw_3_relu (ReLU)        (None, 56, 56, 32)        0         
2020-11-24 14:00:08,734-INFO-_________________________________________________________________
2020-11-24 14:00:08,734-INFO-conv_pw_3 (Conv2D)           (None, 56, 56, 32)        1024      
2020-11-24 14:00:08,734-INFO-_________________________________________________________________
2020-11-24 14:00:08,734-INFO-conv_pw_3_bn (BatchNormaliza (None, 56, 56, 32)        128       
2020-11-24 14:00:08,734-INFO-_________________________________________________________________
2020-11-24 14:00:08,734-INFO-conv_pw_3_relu (ReLU)        (None, 56, 56, 32)        0         
2020-11-24 14:00:08,734-INFO-_________________________________________________________________
2020-11-24 14:00:08,734-INFO-conv_pad_4 (ZeroPadding2D)   (None, 57, 57, 32)        0         
2020-11-24 14:00:08,734-INFO-_________________________________________________________________
2020-11-24 14:00:08,735-INFO-conv_dw_4 (DepthwiseConv2D)  (None, 28, 28, 32)        288       
2020-11-24 14:00:08,735-INFO-_________________________________________________________________
2020-11-24 14:00:08,735-INFO-conv_dw_4_bn (BatchNormaliza (None, 28, 28, 32)        128       
2020-11-24 14:00:08,735-INFO-_________________________________________________________________
2020-11-24 14:00:08,735-INFO-conv_dw_4_relu (ReLU)        (None, 28, 28, 32)        0         
2020-11-24 14:00:08,735-INFO-_________________________________________________________________
2020-11-24 14:00:08,735-INFO-conv_pw_4 (Conv2D)           (None, 28, 28, 64)        2048      
2020-11-24 14:00:08,735-INFO-_________________________________________________________________
2020-11-24 14:00:08,736-INFO-conv_pw_4_bn (BatchNormaliza (None, 28, 28, 64)        256       
2020-11-24 14:00:08,736-INFO-_________________________________________________________________
2020-11-24 14:00:08,736-INFO-conv_pw_4_relu (ReLU)        (None, 28, 28, 64)        0         
2020-11-24 14:00:08,736-INFO-_________________________________________________________________
2020-11-24 14:00:08,736-INFO-conv_dw_5 (DepthwiseConv2D)  (None, 28, 28, 64)        576       
2020-11-24 14:00:08,736-INFO-_________________________________________________________________
2020-11-24 14:00:08,736-INFO-conv_dw_5_bn (BatchNormaliza (None, 28, 28, 64)        256       
2020-11-24 14:00:08,736-INFO-_________________________________________________________________
2020-11-24 14:00:08,737-INFO-conv_dw_5_relu (ReLU)        (None, 28, 28, 64)        0         
2020-11-24 14:00:08,737-INFO-_________________________________________________________________
2020-11-24 14:00:08,737-INFO-conv_pw_5 (Conv2D)           (None, 28, 28, 64)        4096      
2020-11-24 14:00:08,737-INFO-_________________________________________________________________
2020-11-24 14:00:08,737-INFO-conv_pw_5_bn (BatchNormaliza (None, 28, 28, 64)        256       
2020-11-24 14:00:08,737-INFO-_________________________________________________________________
2020-11-24 14:00:08,737-INFO-conv_pw_5_relu (ReLU)        (None, 28, 28, 64)        0         
2020-11-24 14:00:08,737-INFO-_________________________________________________________________
2020-11-24 14:00:08,737-INFO-conv_pad_6 (ZeroPadding2D)   (None, 29, 29, 64)        0         
2020-11-24 14:00:08,737-INFO-_________________________________________________________________
2020-11-24 14:00:08,738-INFO-conv_dw_6 (DepthwiseConv2D)  (None, 14, 14, 64)        576       
2020-11-24 14:00:08,738-INFO-_________________________________________________________________
2020-11-24 14:00:08,738-INFO-conv_dw_6_bn (BatchNormaliza (None, 14, 14, 64)        256       
2020-11-24 14:00:08,738-INFO-_________________________________________________________________
2020-11-24 14:00:08,738-INFO-conv_dw_6_relu (ReLU)        (None, 14, 14, 64)        0         
2020-11-24 14:00:08,738-INFO-_________________________________________________________________
2020-11-24 14:00:08,738-INFO-conv_pw_6 (Conv2D)           (None, 14, 14, 128)       8192      
2020-11-24 14:00:08,738-INFO-_________________________________________________________________
2020-11-24 14:00:08,739-INFO-conv_pw_6_bn (BatchNormaliza (None, 14, 14, 128)       512       
2020-11-24 14:00:08,739-INFO-_________________________________________________________________
2020-11-24 14:00:08,739-INFO-conv_pw_6_relu (ReLU)        (None, 14, 14, 128)       0         
2020-11-24 14:00:08,739-INFO-_________________________________________________________________
2020-11-24 14:00:08,739-INFO-conv_dw_7 (DepthwiseConv2D)  (None, 14, 14, 128)       1152      
2020-11-24 14:00:08,739-INFO-_________________________________________________________________
2020-11-24 14:00:08,739-INFO-conv_dw_7_bn (BatchNormaliza (None, 14, 14, 128)       512       
2020-11-24 14:00:08,740-INFO-_________________________________________________________________
2020-11-24 14:00:08,740-INFO-conv_dw_7_relu (ReLU)        (None, 14, 14, 128)       0         
2020-11-24 14:00:08,740-INFO-_________________________________________________________________
2020-11-24 14:00:08,740-INFO-conv_pw_7 (Conv2D)           (None, 14, 14, 128)       16384     
2020-11-24 14:00:08,740-INFO-_________________________________________________________________
2020-11-24 14:00:08,740-INFO-conv_pw_7_bn (BatchNormaliza (None, 14, 14, 128)       512       
2020-11-24 14:00:08,740-INFO-_________________________________________________________________
2020-11-24 14:00:08,740-INFO-conv_pw_7_relu (ReLU)        (None, 14, 14, 128)       0         
2020-11-24 14:00:08,740-INFO-_________________________________________________________________
2020-11-24 14:00:08,741-INFO-conv_dw_8 (DepthwiseConv2D)  (None, 14, 14, 128)       1152      
2020-11-24 14:00:08,741-INFO-_________________________________________________________________
2020-11-24 14:00:08,741-INFO-conv_dw_8_bn (BatchNormaliza (None, 14, 14, 128)       512       
2020-11-24 14:00:08,741-INFO-_________________________________________________________________
2020-11-24 14:00:08,741-INFO-conv_dw_8_relu (ReLU)        (None, 14, 14, 128)       0         
2020-11-24 14:00:08,741-INFO-_________________________________________________________________
2020-11-24 14:00:08,741-INFO-conv_pw_8 (Conv2D)           (None, 14, 14, 128)       16384     
2020-11-24 14:00:08,741-INFO-_________________________________________________________________
2020-11-24 14:00:08,742-INFO-conv_pw_8_bn (BatchNormaliza (None, 14, 14, 128)       512       
2020-11-24 14:00:08,742-INFO-_________________________________________________________________
2020-11-24 14:00:08,742-INFO-conv_pw_8_relu (ReLU)        (None, 14, 14, 128)       0         
2020-11-24 14:00:08,742-INFO-_________________________________________________________________
2020-11-24 14:00:08,742-INFO-conv_dw_9 (DepthwiseConv2D)  (None, 14, 14, 128)       1152      
2020-11-24 14:00:08,742-INFO-_________________________________________________________________
2020-11-24 14:00:08,742-INFO-conv_dw_9_bn (BatchNormaliza (None, 14, 14, 128)       512       
2020-11-24 14:00:08,742-INFO-_________________________________________________________________
2020-11-24 14:00:08,743-INFO-conv_dw_9_relu (ReLU)        (None, 14, 14, 128)       0         
2020-11-24 14:00:08,743-INFO-_________________________________________________________________
2020-11-24 14:00:08,743-INFO-conv_pw_9 (Conv2D)           (None, 14, 14, 128)       16384     
2020-11-24 14:00:08,743-INFO-_________________________________________________________________
2020-11-24 14:00:08,743-INFO-conv_pw_9_bn (BatchNormaliza (None, 14, 14, 128)       512       
2020-11-24 14:00:08,743-INFO-_________________________________________________________________
2020-11-24 14:00:08,743-INFO-conv_pw_9_relu (ReLU)        (None, 14, 14, 128)       0         
2020-11-24 14:00:08,743-INFO-_________________________________________________________________
2020-11-24 14:00:08,743-INFO-conv_dw_10 (DepthwiseConv2D) (None, 14, 14, 128)       1152      
2020-11-24 14:00:08,743-INFO-_________________________________________________________________
2020-11-24 14:00:08,744-INFO-conv_dw_10_bn (BatchNormaliz (None, 14, 14, 128)       512       
2020-11-24 14:00:08,744-INFO-_________________________________________________________________
2020-11-24 14:00:08,744-INFO-conv_dw_10_relu (ReLU)       (None, 14, 14, 128)       0         
2020-11-24 14:00:08,744-INFO-_________________________________________________________________
2020-11-24 14:00:08,744-INFO-conv_pw_10 (Conv2D)          (None, 14, 14, 128)       16384     
2020-11-24 14:00:08,744-INFO-_________________________________________________________________
2020-11-24 14:00:08,744-INFO-conv_pw_10_bn (BatchNormaliz (None, 14, 14, 128)       512       
2020-11-24 14:00:08,744-INFO-_________________________________________________________________
2020-11-24 14:00:08,744-INFO-conv_pw_10_relu (ReLU)       (None, 14, 14, 128)       0         
2020-11-24 14:00:08,744-INFO-_________________________________________________________________
2020-11-24 14:00:08,745-INFO-conv_dw_11 (DepthwiseConv2D) (None, 14, 14, 128)       1152      
2020-11-24 14:00:08,745-INFO-_________________________________________________________________
2020-11-24 14:00:08,745-INFO-conv_dw_11_bn (BatchNormaliz (None, 14, 14, 128)       512       
2020-11-24 14:00:08,745-INFO-_________________________________________________________________
2020-11-24 14:00:08,745-INFO-conv_dw_11_relu (ReLU)       (None, 14, 14, 128)       0         
2020-11-24 14:00:08,745-INFO-_________________________________________________________________
2020-11-24 14:00:08,745-INFO-conv_pw_11 (Conv2D)          (None, 14, 14, 128)       16384     
2020-11-24 14:00:08,745-INFO-_________________________________________________________________
2020-11-24 14:00:08,746-INFO-conv_pw_11_bn (BatchNormaliz (None, 14, 14, 128)       512       
2020-11-24 14:00:08,746-INFO-_________________________________________________________________
2020-11-24 14:00:08,746-INFO-conv_pw_11_relu (ReLU)       (None, 14, 14, 128)       0         
2020-11-24 14:00:08,746-INFO-_________________________________________________________________
2020-11-24 14:00:08,746-INFO-conv_pad_12 (ZeroPadding2D)  (None, 15, 15, 128)       0         
2020-11-24 14:00:08,746-INFO-_________________________________________________________________
2020-11-24 14:00:08,746-INFO-conv_dw_12 (DepthwiseConv2D) (None, 7, 7, 128)         1152      
2020-11-24 14:00:08,746-INFO-_________________________________________________________________
2020-11-24 14:00:08,746-INFO-conv_dw_12_bn (BatchNormaliz (None, 7, 7, 128)         512       
2020-11-24 14:00:08,746-INFO-_________________________________________________________________
2020-11-24 14:00:08,746-INFO-conv_dw_12_relu (ReLU)       (None, 7, 7, 128)         0         
2020-11-24 14:00:08,746-INFO-_________________________________________________________________
2020-11-24 14:00:08,747-INFO-conv_pw_12 (Conv2D)          (None, 7, 7, 256)         32768     
2020-11-24 14:00:08,747-INFO-_________________________________________________________________
2020-11-24 14:00:08,747-INFO-conv_pw_12_bn (BatchNormaliz (None, 7, 7, 256)         1024      
2020-11-24 14:00:08,747-INFO-_________________________________________________________________
2020-11-24 14:00:08,747-INFO-conv_pw_12_relu (ReLU)       (None, 7, 7, 256)         0         
2020-11-24 14:00:08,747-INFO-_________________________________________________________________
2020-11-24 14:00:08,747-INFO-conv_dw_13 (DepthwiseConv2D) (None, 7, 7, 256)         2304      
2020-11-24 14:00:08,747-INFO-_________________________________________________________________
2020-11-24 14:00:08,747-INFO-conv_dw_13_bn (BatchNormaliz (None, 7, 7, 256)         1024      
2020-11-24 14:00:08,747-INFO-_________________________________________________________________
2020-11-24 14:00:08,747-INFO-conv_dw_13_relu (ReLU)       (None, 7, 7, 256)         0         
2020-11-24 14:00:08,747-INFO-_________________________________________________________________
2020-11-24 14:00:08,748-INFO-conv_pw_13 (Conv2D)          (None, 7, 7, 256)         65536     
2020-11-24 14:00:08,748-INFO-_________________________________________________________________
2020-11-24 14:00:08,748-INFO-conv_pw_13_bn (BatchNormaliz (None, 7, 7, 256)         1024      
2020-11-24 14:00:08,748-INFO-_________________________________________________________________
2020-11-24 14:00:08,748-INFO-conv_pw_13_relu (ReLU)       (None, 7, 7, 256)         0         
2020-11-24 14:00:08,748-INFO-_________________________________________________________________
2020-11-24 14:00:08,748-INFO-global_average_pooling2d (Gl (None, 256)               0         
2020-11-24 14:00:08,748-INFO-_________________________________________________________________
2020-11-24 14:00:08,748-INFO-reshape_1 (Reshape)          (None, 1, 1, 256)         0         
2020-11-24 14:00:08,748-INFO-_________________________________________________________________
2020-11-24 14:00:08,748-INFO-dropout (Dropout)            (None, 1, 1, 256)         0         
2020-11-24 14:00:08,748-INFO-_________________________________________________________________
2020-11-24 14:00:08,749-INFO-conv_preds (Conv2D)          (None, 1, 1, 2)           514       
2020-11-24 14:00:08,749-INFO-_________________________________________________________________
2020-11-24 14:00:08,749-INFO-reshape_2 (Reshape)          (None, 2)                 0         
2020-11-24 14:00:08,749-INFO-_________________________________________________________________
2020-11-24 14:00:08,749-INFO-predictions (Activation)     (None, 2)                 0         
2020-11-24 14:00:08,749-INFO-=================================================================
2020-11-24 14:00:08,751-INFO-Total params: 218,914
2020-11-24 14:00:08,751-INFO-Trainable params: 213,442
2020-11-24 14:00:08,751-INFO-Non-trainable params: 5,472
2020-11-24 14:00:08,751-INFO-_________________________________________________________________
2020-11-24 14:00:08,751-INFO-starting training
…
