…
2020-11-05 16:35:55,865-INFO-TRAIN_DATA_FOLDER=/home/tobi/Downloads/trixsyDataset/training_dataset
SRC_DATA_FOLDER=/home/tobi/Downloads/trixsyDataset/source_data
2020-11-05 16:35:59,767-INFO-creating new empty model
2020-11-05 16:35:59,861-INFO-Model: "sequential_1"
2020-11-05 16:35:59,861-INFO-_________________________________________________________________
2020-11-05 16:35:59,861-INFO-Layer (type)                 Output Shape              Param #   
2020-11-05 16:35:59,861-INFO-=================================================================
2020-11-05 16:35:59,862-INFO-conv1 (Conv2D)               (None, 54, 54, 64)        7808      
2020-11-05 16:35:59,862-INFO-_________________________________________________________________
2020-11-05 16:35:59,862-INFO-batch_normalization_2 (Batch (None, 54, 54, 64)        256       
2020-11-05 16:35:59,862-INFO-_________________________________________________________________
2020-11-05 16:35:59,862-INFO-max_pooling2d_3 (MaxPooling2 (None, 26, 26, 64)        0         
2020-11-05 16:35:59,862-INFO-_________________________________________________________________
2020-11-05 16:35:59,862-INFO-conv2 (Conv2D)               (None, 26, 26, 64)        102464    
2020-11-05 16:35:59,863-INFO-_________________________________________________________________
2020-11-05 16:35:59,863-INFO-batch_normalization_3 (Batch (None, 26, 26, 64)        256       
2020-11-05 16:35:59,863-INFO-_________________________________________________________________
2020-11-05 16:35:59,863-INFO-max_pooling2d_4 (MaxPooling2 (None, 12, 12, 64)        0         
2020-11-05 16:35:59,863-INFO-_________________________________________________________________
2020-11-05 16:35:59,864-INFO-conv3 (Conv2D)               (None, 12, 12, 128)       73856     
2020-11-05 16:35:59,864-INFO-_________________________________________________________________
2020-11-05 16:35:59,864-INFO-conv4 (Conv2D)               (None, 12, 12, 128)       147584    
2020-11-05 16:35:59,864-INFO-_________________________________________________________________
2020-11-05 16:35:59,864-INFO-max_pooling2d_5 (MaxPooling2 (None, 5, 5, 128)         0         
2020-11-05 16:35:59,864-INFO-_________________________________________________________________
2020-11-05 16:35:59,864-INFO-flatten_1 (Flatten)          (None, 3200)              0         
2020-11-05 16:35:59,865-INFO-_________________________________________________________________
2020-11-05 16:35:59,865-INFO-fc8 (Dense)                  (None, 100)               320100    
2020-11-05 16:35:59,865-INFO-_________________________________________________________________
2020-11-05 16:35:59,865-INFO-dropout_1 (Dropout)          (None, 100)               0         
2020-11-05 16:35:59,865-INFO-_________________________________________________________________
2020-11-05 16:35:59,865-INFO-output (Dense)               (None, 2)                 202       
2020-11-05 16:35:59,866-INFO-=================================================================
2020-11-05 16:35:59,866-INFO-Total params: 652,526
2020-11-05 16:35:59,867-INFO-Trainable params: 652,270
2020-11-05 16:35:59,867-INFO-Non-trainable params: 256
2020-11-05 16:35:59,867-INFO-_________________________________________________________________
2020-11-05 16:35:59,867-INFO-making training generator
…
