…
SRC_DATA_FOLDER=G:\Downloads\trixsyDataset\source_data
2020-12-10 19:53:55,236-WARNING-test warning
2020-12-10 19:53:55,236-ERROR-test error
2020-12-10 19:53:55,236-INFO-making training generator
2020-12-10 19:53:56,417-INFO-making validation generator
2020-12-10 19:53:57,001-INFO-Model: "sequential"
2020-12-10 19:53:57,001-INFO-_________________________________________________________________
2020-12-10 19:53:57,001-INFO-Layer (type)                 Output Shape              Param #   
2020-12-10 19:53:57,002-INFO-=================================================================
2020-12-10 19:53:57,002-INFO-conv1 (Conv2D)               (None, 69, 69, 64)        23168     
2020-12-10 19:53:57,002-INFO-_________________________________________________________________
2020-12-10 19:53:57,002-INFO-dropout (Dropout)            (None, 69, 69, 64)        0         
2020-12-10 19:53:57,002-INFO-_________________________________________________________________
2020-12-10 19:53:57,002-INFO-batch_normalization (BatchNo (None, 69, 69, 64)        256       
2020-12-10 19:53:57,002-INFO-_________________________________________________________________
2020-12-10 19:53:57,002-INFO-max_pooling2d (MaxPooling2D) (None, 34, 34, 64)        0         
2020-12-10 19:53:57,002-INFO-_________________________________________________________________
2020-12-10 19:53:57,003-INFO-conv2 (Conv2D)               (None, 34, 34, 64)        102464    
2020-12-10 19:53:57,003-INFO-_________________________________________________________________
2020-12-10 19:53:57,003-INFO-dropout_1 (Dropout)          (None, 34, 34, 64)        0         
2020-12-10 19:53:57,003-INFO-_________________________________________________________________
2020-12-10 19:53:57,003-INFO-batch_normalization_1 (Batch (None, 34, 34, 64)        256       
2020-12-10 19:53:57,003-INFO-_________________________________________________________________
2020-12-10 19:53:57,003-INFO-max_pooling2d_1 (MaxPooling2 (None, 16, 16, 64)        0         
2020-12-10 19:53:57,003-INFO-_________________________________________________________________
2020-12-10 19:53:57,003-INFO-conv3 (Conv2D)               (None, 16, 16, 64)        36928     
2020-12-10 19:53:57,003-INFO-_________________________________________________________________
2020-12-10 19:53:57,003-INFO-dropout_2 (Dropout)          (None, 16, 16, 64)        0         
2020-12-10 19:53:57,004-INFO-_________________________________________________________________
2020-12-10 19:53:57,004-INFO-conv4 (Conv2D)               (None, 16, 16, 64)        36928     
2020-12-10 19:53:57,004-INFO-_________________________________________________________________
2020-12-10 19:53:57,004-INFO-dropout_3 (Dropout)          (None, 16, 16, 64)        0         
2020-12-10 19:53:57,004-INFO-_________________________________________________________________
2020-12-10 19:53:57,004-INFO-max_pooling2d_2 (MaxPooling2 (None, 7, 7, 64)          0         
2020-12-10 19:53:57,012-INFO-_________________________________________________________________
2020-12-10 19:53:57,012-INFO-flatten (Flatten)            (None, 3136)              0         
2020-12-10 19:53:57,012-INFO-_________________________________________________________________
2020-12-10 19:53:57,012-INFO-fc1 (Dense)                  (None, 64)                200768    
2020-12-10 19:53:57,012-INFO-_________________________________________________________________
2020-12-10 19:53:57,012-INFO-dropout_4 (Dropout)          (None, 64)                0         
2020-12-10 19:53:57,012-INFO-_________________________________________________________________
2020-12-10 19:53:57,012-INFO-fc2 (Dense)                  (None, 64)                4160      
2020-12-10 19:53:57,013-INFO-_________________________________________________________________
2020-12-10 19:53:57,013-INFO-dropout_5 (Dropout)          (None, 64)                0         
2020-12-10 19:53:57,013-INFO-_________________________________________________________________
2020-12-10 19:53:57,013-INFO-output (Dense)               (None, 2)                 130       
2020-12-10 19:53:57,013-INFO-=================================================================
2020-12-10 19:53:57,014-INFO-Total params: 405,058
2020-12-10 19:53:57,014-INFO-Trainable params: 404,802
2020-12-10 19:53:57,014-INFO-Non-trainable params: 256
2020-12-10 19:53:57,014-INFO-_________________________________________________________________
2020-12-10 19:53:57,014-INFO-starting training
…
